models/skeleton_lstm_pytorch_model.pth (torch, 912261 bytes, 9 tensors)

lstm.weight_ih_l0 f4 [512, 55]
00000000: 59d1 dd3b 306e c03d 94b3 51bd 848c 7ebb
00000010: b545 b33d aecc b13d 398a 7e3d e074 67bd
00000020: 316b 8e3d a0a4 8fbb 30a3 8abd 9ad0 91bd
00000030: f164 ac3d ac66 86bd 001c f3ba 193b a83d
00000040: d977 b33d 9d82 aa3d fa9a 9abd 9104 5cbd
00000050: b430 74bd d391 ae3d 41cd 0abd 4271 483d
00000060: 9915 a73d 250a 893d ceb5 253d d0cb 68bc
00000070: 8074 553b f3bc 9e3d cc1c aebd 8065 47bc
00000080: 5a18 6d3d 1a9b 63bd bd9f a33d 72ad 613d
00000090: 4772 993d d144 9e3d 400e 3c3b 809c 5b3a
000000a0: 2159 9ebd 006a 7cbd ba3c 17bd 1050 8cbd
000000b0: 9b0b 983d 0afd 32bd 6443 f93c 402d cbbc
000000c0: 9eab f6bc 84bb 3bbd 5e87 7a3d a060 02bb
000000d0: 027b 743d 22d5 193d 7c09 143d 13e4 9d3b
000000e0: 32e7 19bd 01ab 833d 5afd d83d 1eaa 893d
000000f0: 8782 d6bd 38d6 a83d 6ec7 953d b5df a23d
00000100: 40fc dd3b 9040 cfbc 8276 67bd a8fc 50bc
00000110: d823 f8bc 6030 3c3b c89b 57bd f067 a13c
00000120: e9eb a43d cba5 18bd 7261 4d3d 371c 953d
00000130: 0dd3 adbd 7470 0a3d 8633 103d 4e6c a8bd
00000140: 8cc4 9dbc b720 a2bd 25bf a6bd 1a0f 89bd
00000150: 44bf 75bd 5783 0cbd cd5e 23bd 4a60 1e3d
00000160: 3cf2 eabc 94c1 093d 71a0 a6bd 5cc7 86bc
00000170: 3000 8a3b fe55 203d d0cb 8cbb ab0c 923d
00000180: 2181 953d 343a 9fbc 70ee 03bc cce6 49bd
00000190: ab4e 32bd d8f7 00bd c040 dbbb af74 24bd
000001a0: 30fc d23b 893f 9f3d 84e2 adbd a4fa ad3c
000001b0: 3477 91bd 965c 233d f8bd 9a3d cd29 d53d
000001c0: 1abc c63c 0c29 8dbd 8266 5a3c 406c da3c
000001d0: 8ed4 c9bc fd8c 7abd 6d58 853d 9d34 48bd
000001e0: dc3b adbd d385 98bd 736a a03d 3d83 a33d
000001f0: c3ed 53bd 17c7 79bd cee7 98bd 1742 aa3d
00000200: be0b 4a3d 38ba cdbc 41bb 5ebd 1065 e13c
00000210: 5929 813d 6515 b2bd 5ee7 7e3d 818e a2bd
00000220: 28a0 80bd 9c17 fb3c 9a90 1d3d d4ea 9fbc
00000230: 6785 85bd 7ac1 743d 907b bf3b a1b4 a33d
00000240: 3168 1fbd d41d 943c 50b6 0e3c a17f a83d
00000250: 7063 e9bb df5b abbd 2833 22bc daa9 7cbd
00000260: 10b3 52bc fc8c 49bd 063b 323d e683 f0bc
00000270: 1ac1 7a3d 8709 b3bd 1a8b 383d 48ca eabc
00000280: 99e3 53bd 403a 50bb b00c eabb b24f 5c3d
00000290: c5d5 81bd be35 3bbd 52ff bb3d fc08 c03b
000002a0: 04eb bf3d 384b 86bc 8b4b 373d 4726 58bc
000002b0: 0274 833d e579 afbd c00d 3d3c edc7 8c3d
000002c0: 8926 1ebd 8099 95bc 4077 f23b bca9 80bd
000002d0: 61b3 b03d 0601 60bd ff66 823d 8f37 3abd
000002e0: 9ccd a1bc 9090 b63b 959a 833d b9d0 21bd
000002f0: 904c febb 0c3a 973c 7eb1 513d 8372 8abd
00000300: 97a1 9ebd b2d5 243d f06d 863c 13d4 993d
00000310: c0f2 47bc e0c0 c2bb 8458 90bc 4603 683d
00000320: 8820 ef3c 88f5 59bd cb99 9a3d 3e14 503d
00000330: 00fe dfb9 b4d4 e73c bed2 11bd 60d0 f33c
00000340: 5326 933d 288b 32bc f778 21bd 5298 5a3d
00000350: 8092 c43b ce46 38bd 3144 9e3d 2ce9 923c
00000360: 7d59 8b3d 0c9b abbd bdf2 b03d dc6b ce3c
00000370: b484 21bd 304d 76bc 5fe1 983d a29c c93d
00000380: b8b1 6f3c 7a66 8cbc 98de 1fbd f5cb 423c
00000390: 1a79 143d 0e5f 7f3d 0630 9fbd 9127 9d3d
000003a0: 60b1 86bd 7091 7c3c 1d62 56bd e038 a1bc
000003b0: 00d0 4a3a d439 b5bc 1603 1e3d a34b a2bd
000003c0: c058 233c 900a 98bc a07b ba3c 4de8 a93d
000003d0: d0c0 233c fc53 87bd 5edb 3f3d e0b2 0a3c
000003e0: 4037 a93a 53e6 8ebd dab3 49bd 6b94 823d
000003f0: ffda ab3d 6596 afbd 2ee4 a7bd 600f 4fbd
0.006769341 0.093960166 -0.05119665 -0.0038841078 0.0875353 0.08681618 0.06214354 -0.056507945
0.06954039 -0.0043836385 -0.06769407 -0.07119866 0.084176905 -0.06562552 -0.0018547773 0.08214397
0.087630935 0.08325694 -0.07549091 -0.053715292 -0.05961676 0.085239075 -0.03388715 0.048936136
0.08158416 0.06691388 0.040456586 -0.014208749 0.003257066 0.07750883 -0.08501586 -0.012170196
0.05788455 -0.05556784 0.07989452 0.05509705 0.074925 0.077279694 0.0028695017 0.00083775073
-0.07731844 -0.061624527 -0.036923148 -0.06851208 0.074240886 -0.043698348 0.030427642 -0.02480185
-0.03011113 -0.045833126 0.061164252 -0.0019894019 0.059687622 0.037556775 0.036141858 0.0048184483
-0.037574 0.06429101 0.10595198 0.067219004 -0.10474115 0.08243984 0.07313429 0.07952825
0.0067744553 -0.02529934 -0.056509502 -0.01275555 -0.03029053 0.0028715357 -0.0526388 0.019702882
0.08052809 -0.037267487 0.05014176 0.07280772 -0.0848752 0.03379865 0.035205387 -0.082237825
-0.01925876 -0.07916396 -0.08141927 -0.066923335 -0.05999686 -0.034304943 -0.03988533 0.038666047
-0.02867996 0.033631876 -0.081360705 -0.016452484 0.004211448 0.03914451 -0.0042967573 0.071313225
0.0730002 -0.019436933 -0.008052453 -0.04929237 -0.043532055 -0.031486362 -0.0066910684 -0.04015034
0.0064387545 0.0777579 -0.0849047 0.021237679 -0.07102814 0.03988322 0.07555765 0.104083635
0.024259616 -0.06892595 0.013330104 0.026662946 -0.024637487 -0.061169613 0.065110065 -0.0488783
-0.08458683 -0.074474 0.078328036 0.07984016 -0.05174042 -0.060980882 -0.07466088 0.08313387
0.049327604 -0.02511321 -0.054377798 0.02751401 0.063067146 -0.08695487 0.062232368 -0.07937337
-0.062805474 0.030650906 0.03846798 -0.019521154 -0.06519585 0.059754826 0.005843587 0.079934366
-0.038917724 0.01808063 0.008710459 0.08227468 -0.0071224496 -0.083671324 -0.009899892 -0.06168542
-0.012860075 -0.04920672 0.04351332 -0.02935977 0.061219312 -0.087420516 0.045054533 -0.028660908
-0.051730726 -0.0031773 -0.0071426257 0.05378694 -0.063396014 -0.04570555 0.09179558 0.005860446
0.093709975 -0.016393289 0.044749778 -0.01319272 0.06418611 -0.085681714 0.011538923 0.0687407
-0.03861097 -0.018261671 0.0073994696 -0.06282374 0.08627964 -0.054688476 0.06367301 -0.04546314
-0.019751363 0.0055714324 0.064259686 -0.039505694 -0.007760592 0.018460296 0.05119466 -0.067601226
-0.077456646 0.04024286 0.016409844 0.07511153 -0.012203872 -0.0059434026 -0.017620333 0.056643747
0.029190317 -0.053212672 0.07548865 0.050800554 -0.0004272312 0.028299667 -0.03560137 0.029762447
0.07185044 -0.010897435 -0.039422 0.05336792 0.0059989095 -0.0449894 0.0772785 0.01793345
0.06804178 -0.08379182 0.08640049 0.025197916 -0.039433196 -0.015033051 0.07464861 0.098443285
0.014629774 -0.017138708 -0.03903064 0.011889447 0.036248304 0.06234651 -0.077728316 0.07673562
-0.065768 0.015415534 -0.052339662 -0.01968044 0.0007736683 -0.022122301 0.03857716 -0.07924583
0.00996989 -0.018559724 0.022764027 0.08296261 0.009994701 -0.066078156 0.046840064 0.008465499
0.0012910143 -0.069775246 -0.049243785 0.06375965 0.083913796 -0.08573607 -0.08197819 -0.050551772

lstm.weight_hh_l0 f4 [512, 128]
00000000: c81c cabc 9bfe c9ba 89e5 94bd d71f 8a3c
00000010: 98ef ca3d 73ea 1abd 4bbb 81bd 656f 80bd
00000020: 647c 24be 8c4b 053d 6026 dc3d c9a4 753d
00000030: 41cf 4dbd fe1a 443c 4d8d 30bd a286 8dbc
00000040: 8f46 a2bc ae60 003d b4e2 9a3d 3b22 9f3d
00000050: 427f 4abc a3a3 4d3d efcc 97bc 78ef 0bbc
00000060: 74d0 d43d d3e5 9e3c b477 6bbd 6a1a 413d
00000070: 884a 4e3a b63e b63d 792d 4abd e786 0bbe
00000080: f57f b6bd ba91 31bd a39c 14bd 90c3 a6bd
00000090: efbd 103d ffeb 05bc c98e 673d b240 9f3d
000000a0: 5036 553d a229 033d 2c95 8a3d bca8 403d
000000b0: b83d 03bd a791 8d3c 04c0 a43c e67e 7c3d
000000c0: ab15 d93c 4135 4a3d 4184 babc 7021 2abd
000000d0: 3a7e 9b3d 1edd be3d 55ee 983d 9b1b 393d
000000e0: f517 4d3d bcf0 c6bc 9408 f7bc 3d82 013e
000000f0: f3fc 89bd 839d 603d 67d6 a1bc c52a 8fba
00000100: c321 94bc fb20 9a3b aa1b 8e3c 8c07 26bd
00000110: 63a2 943d d34a 0ebd fddb 0fbd 9e28 cd3c
00000120: 0ecc 09bd 9643 7abd 305f 8f3d bf44 cb3c
00000130: e54d 1ebd 1b93 48bd 90e0 ee3c 0b33 efbb
00000140: c836 81bc 5fb1 a5bd 2847 04bd a5b9 653d
00000150: 95ef 633d 814b 18bd 3306 03bd 39c2 5cbc
00000160: 9ea2 81bc 7c84 f6bd 66b8 4a3d 0db2 a63d
00000170: e802 d83d 602e 87bd 5496 f53c fc09 943d
00000180: ec5e 3f3c 510c b0bd f4d4 433d dbc1 90bd
00000190: 602d 73bc 6fef 96bc b1f6 883d 1ca4 d3bd
000001a0: 512b aebd 93db 15bb b3d2 dd3c 5cd9 8abb
000001b0: 20b7 bebd dce8 b13d 0e3c 613d d863 213d
000001c0: 5da5 2a3d f00e aebc f1ac f8bc 94dc 6c3d
000001d0: b5d4 9d3c 55f6 843d 99fd 33bc 6f43 69bd
000001e0: dafc 9a3d 51de 9d3c d732 8f3d 542c 35bd
000001f0: 937f 3a3d 3685 663d cf71 96bd fa9e ae3b
00000200: a7e9 683c d1f0 b4bc 7499 6bbd 2abc 903d
00000210: 99f2 9bbd 4c4b 1f3c e644 a63d c0b2 923d
00000220: 4c37 393d a689 953d 5b51 86bd 02b0 2dbd
00000230: 53b2 b6bd 65a6 81bd 1f1b b2bc 2993 fc3d
00000240: 6cd7 96bd 47ca 773d a4a4 83bc c119 883d
00000250: d74e af3d 274e bf3c e71a 95bd 5ebb b73d
00000260: 609d 31bb 022e 513d 4fcd 523d d577 c63d
00000270: 3ac8 b6bd ce50 fe3c 22bb d0ba d67f 8dbd
00000280: c017 9bbd dcf7 033d a7c8 6abd acbf cc3c
00000290: 6981 1fbd 2582 3cbd b4d2 93bc 706d 113a
000002a0: 34ed a23d 9d5a 323d 1c17 883c 2883 283a
000002b0: 4522 41bd e5b1 8a3d 18d0 dabd aa13 413a
000002c0: e137 c7bc 6d65 05bd 185b 813a ac9b 85bd
000002d0: 024b 4f3d c52a 553d 3b20 193d 171e 39bd
000002e0: 71ff 8bbc 94b3 08be 622e d33d 367d 8f3c
000002f0: 9d8f 52bd ea5e 4dbd 4772 9b3d 4b4e 79bc
00000300: 863e ccbd f77d d33d 902c 393d 0c07 fcba
00000310: be33 81bd 5d0e f23d f5b7 18bd 688a a5bd
00000320: edb6 01bb 52fa 13bd 1bb6 c63d cc9d 3cbd
00000330: 307d b8bd 06a0 eabb 3396 a7bc ec9b b6bd
00000340: 321a f9bc 0f93 d93c 007a 25bd d362 afbd
00000350: 259c 25bc 44ab ce3d 5996 00ba 7a3c a03c
00000360: 0947 9dbc 8c08 f73d 27a3 9ebb f4c9 e4bc
00000370: f817 45bd cdd2 5abd e8ad bd3c 67db 3bb9
00000380: 28cd 953d 31e5 9d3c caab 50bd 2a82 6fbd
00000390: 9c7f a6bc a3f5 033d 4c23 a8bd 1ff4 ca3d
000003a0: 9332 483d ba41 8ebb 278d 01bd 98f4 b2bd
000003b0: 0d2a e93c f2c2 26bd d0ad 4a3c 7773 ad3d
000003c0: ec35 9ebc a4eb 8c3d b6cb 45bc 568f 943d
000003d0: e798 8ebd 4d90 533d baad 73bd 07e0 ffbb
000003e0: e4ee 9abd c06c aa3d 8e52 9d3d 528d e2bd
000003f0: 714e b73c 6698 5abd 1e28 e2bc 1273 f3bc
-0.024671927 -0.0015410961 -0.07270343 0.016860886 0.0990898 -0.037821244 -0.063345514 -0.06271247
-0.16063076 0.03254275 0.10749507 0.059971604 -0.05024648 0.011969326 -0.043103505 -0.017276112
-0.019809036 0.0313422 0.075627714 0.07770201 -0.012359442 0.050204884 -0.018530337 -0.0085409805
0.10391322 0.019396698 -0.057487205 0.04714433 0.00078693824 0.0889868 -0.049359772 -0.1362568
-0.089111246 -0.043351866 -0.036282193 -0.08142769 0.035337385 -0.008173942 0.056532655 0.077760115
0.05205375 0.032022126 0.067667335 0.047035918 -0.03204128 0.017281367 0.020111091 0.061644457
0.02649959 0.049367193 -0.022768142 -0.041535795 0.07592435 0.093195185 0.07467333 0.045192342
0.050071675 -0.024284713 -0.030155458 0.12647338 -0.06737699 0.054837715 -0.019755555 -0.001092278
-0.018082505 0.0047036386 0.017347176 -0.04053454 0.07257535 -0.034739327 -0.035121907 0.025043782
-0.033641867 -0.06109961 0.070005774 0.024813054 -0.038648505 -0.048968416 0.029159814 -0.007299786
-0.015773192 -0.080904715 -0.032294422 0.056085248 0.055648405 -0.03718138 -0.031988334 -0.013474041
-0.015824612 -0.12036988 0.049492262 0.08139429 0.10547429 -0.06600642 0.029978909 0.07228467
0.011680346 -0.08596099 0.04781051 -0.07068225 -0.014842361 -0.018424718 0.06687678 -0.10334036
-0.08504356 -0.0022866472 0.027078008 -0.004237337 -0.09312272 0.086869925 0.054988913 0.03940186
0.04166161 -0.021247357 -0.030355902 0.057827547 0.019266466 0.064922966 -0.010985755 -0.056949075
0.07567759 0.019271048 0.06992119 -0.044231728 0.04553182 0.056279384 -0.07345926 0.00532901
0.014215863 -0.022087486 -0.05751939 0.070671394 -0.07614631 0.009722542 0.0811861 0.07163
0.04521875 0.07301645 -0.06558486 -0.042404182 -0.089207314 -0.06330565 -0.021741448 0.12332756
-0.07365307 0.06049564 -0.016069718 0.06645537 0.085599594 0.023352696 -0.07280522 0.08971284
-0.002710186 0.051069267 0.05146533 0.09690825 -0.08924909 0.03104439 -0.001592491 -0.069091484
-0.07572889 0.0322188 -0.057320263 0.02499374 -0.038941775 -0.046022553 -0.018044807 0.00055476185
0.07955399 0.043543447 0.016612582 0.0006428235 -0.047151823 0.06772212 -0.10684222 0.0007365296
-0.024318637 -0.03256743 0.0009869067 -0.06523833 0.050608642 0.05204274 0.037384253 -0.04519471
-0.017089577 -0.13349754 0.10311581 0.01751576 -0.05140649 -0.050139345 0.07590156 -0.01521642
-0.09972863 0.1032676 0.045208514 -0.0019228174 -0.06308697 0.11819146 -0.03728481 -0.080830395
-0.001979287 -0.036127396 0.097027026 -0.046048924 -0.090082526 -0.0071601896 -0.020457363 -0.089164585
-0.030407999 0.02655938 -0.04039955 -0.08563771 -0.010108029 0.1009126 -0.0004905216 0.019560087
-0.019198911 0.12062177 -0.0048412266 -0.02792833 -0.04811856 -0.05342369 0.023154214 -0.00017915443
0.07314521 0.019274326 -0.05094508 -0.058473743 -0.02032452 0.03221668 -0.08209857 0.09909844
0.048876356 -0.0043413313 -0.031628754 -0.08738059 0.028462434 -0.040713258 0.012370542 0.08469289
-0.019312821 0.068808824 -0.012072494 0.07253902 -0.069627576 0.051651288 -0.05949185 -0.0078086886
-0.07565096 0.08321524 0.07681762 -0.11062111 0.022376271 -0.053367995 -0.02760702 -0.029717956

lstm.bias_ih_l0 f4 [512]
00000000: 5876 6c3d 5229 98bc 8b39 4f3d 7d2f d43b
00000010: 8b5b 52bd f66d 823d df36 0bbd 4c13 37bc
00000020: 4820 52bd 43f6 193d 3cdf adbc d248 acbc
00000030: aeb5 af3c a56e 703d f4a2 3c3c 20b0 643d
00000040: 7f5f 103d 0ab9 9e3d d066 a03c a69e 483d
00000050: 83b1 ff3c 01c0 36bd 1020 4e3c 0743 943c
00000060: edfa 1ebd aad4 ad3d 81c2 d13d a9a5 c53a
00000070: c40a 33bd 9f4e a4bb 4a07 b83d 34a8 3bbc
00000080: eef6 ed3d 226d c13c b539 2a3c 563d 293d
00000090: b5fd 843d 0213 bc3d 2374 193c 9183 253c
000000a0: df4f b23d a5e5 99bd 1991 933b 3d6e 993c
000000b0: f551 123d 9328 433c 07e4 003b b319 30ba
000000c0: 67df a13d 6a0f 0a3d 8e41 2bbd ff1c 0a3c
000000d0: 5940 613d 3531 ae3d aba6 ff3c 122a 2d3c
000000e0: 9a31 4ebd 53d3 203d 9c5b 653d 71e3 a4bd
000000f0: cd73 3a3d 4fc4 af3d a66b 8a3d b7e6 c43d
00000100: 058a aa3d 13d5 4abd 6f3f 4dbd 8bfe 9abc
00000110: dbe1 ea3c a50c 3ebc 53e1 cc3d 4bc3 ab3d
00000120: f9cf a73d 3f64 873c faaf 4d3d 09c9 5037
00000130: 2c75 7c3d d37b af3d 75d7 403d c040 3d3c
00000140: a466 08bd f2fe 9f3d d5a4 65bd 569d be3c
00000150: aa16 1e3d 6b07 433d d3a2 95bd 55de 57bd
00000160: 2173 833c b658 1dbd 557f 673d 6760 b73d
00000170: 3208 633d e773 b83d b00a f3bc a567 2a3d
00000180: 1fca 3bbd 982b f13c e2a9 073d c53d 3ebc
00000190: 38df 1a3d 8a15 8dbd 72e7 ccbb cfb1 1d3b
000001a0: 0730 83bc 2f44 49bd 3fc2 9f3d 7ae5 063d
000001b0: 0fe1 76bd acac 313d 2d9f 743c c2f4 b83d
000001c0: beec aa3d e7e3 42bd 838f 703a 1b60 3dbd
000001d0: f993 2bbd 55c8 6ebd 0edc a83d b7c6 0abd
000001e0: 1751 c83c 1df7 a23d c63a b8bb 0b3c 273d
000001f0: 7d72 253d 3961 13bd 0b98 b93d d2a5 33bc
00000200: 9249 8bbc b989 9a3d 025e b43b 49d9 db39
00000210: bad5 293c fcdd 943d 7742 a53d 54b1 4dbd
00000220: 991e ba3d d1a7 473c 01c2 b23c 5d2a 0bbd
00000230: 737a 8f3d ef86 843c b7b6 3cbd 3321 c33c
00000240: 2a72 b33c cdf9 943d 4cd6 c6bc 1f03 d93d
00000250: ef80 42bd e8bd 66bc b8e7 cc3d 9d97 33bd
00000260: 69bc 9bbc d9d9 a83d e9a8 dfbc b8f8 77bd
00000270: 6458 ba3d a179 c13d ef37 9d3d 0442 c7bc
00000280: f323 8b3d b5d9 15bd d288 31bd 03fd c83d
00000290: 24ae c33d da8b 2b3c 900a 0d3c 0b2b 01bd
000002a0: f73a 5c3d 2a64 4abb db49 bf3d d727 873d
000002b0: 6a1a 43bc 4384 e33d a7bf fb3c fb07 b63d
000002c0: 9cf1 bebb e8c8 a33d dc87 973d f8da ab3c
000002d0: 1202 8f3c 3e0f e73a f4ac 05bd d50d b03d
000002e0: b691 9f3d 0c8f b43d 70b9 5e3c 498f 21bd
000002f0: 0a56 4cbd c2da e23d 2d6d 9cbc 2ed0 f6bc
00000300: b37a 4f3d 2679 81bc a78d 84bd dc17 48bd
00000310: 9df7 e13b 901c 733d be07 523d 2a94 ce3d
00000320: 2d95 483d 7fc8 773d 075e d7bc e5aa d13c
00000330: fa9e 043c 0e6c bf3c 635b ac3d 79dc ab3d
00000340: cb0e fb3d 7886 443d 1a91 cdbb 2cec 5dbd
00000350: 3ada fd3b a79c 8a3d 9d13 9abc 1454 163d
00000360: 2e45 923d 16e2 e0bc 7c37 e23d 2cb7 913d
00000370: 2b0d ab3d 8b94 c3bb 2628 513d 410b f83d
00000380: cf73 023d 599b b739 76b1 dcbc 512c f53c
00000390: 21f9 913d 2825 8ebd a79d b93d 0d4a 603d
000003a0: c8ee b13d f8d1 0ebd 4858 d43b eaf7 54bd
000003b0: 711c 6bbd 2de4 77bd 36db 873d 21f1 b9bc
000003c0: 8550 0dbc 632a f6bc 58da d03d 49b9 503d
000003d0: 018e ab3d db08 b43d 765b 5238 3619 3dbd
000003e0: a1ca d33c d55f bc3d c64f 80bd dc60 043d
000003f0: e7e9 983d e08f ca3d 3a59 7bbd 144f 503c
0.05773005 -0.01857439 0.050591987 0.0064753876 -0.051356833 0.0636863 -0.033987876 -0.011174034
-0.051300317 0.03758837 -0.02122461 -0.021030817 0.021448936 0.05869927 0.01151346 0.05583203
0.035247322 0.07750137 0.019580275 0.048979424 0.031212574 -0.044616703 0.0125808865 0.018098367
-0.03881352 0.08487828 0.10242177 0.0015079278 -0.04371144 -0.005014255 0.08985765 -0.011453677
0.11619364 0.023611609 0.010389735 0.04131826 0.06493703 0.09183313 0.009366068 0.010102169
0.087066405 -0.07514504 0.004503381 0.018729324 0.03572269 0.011911529 0.0019667165 -0.00067176967
0.07903939 0.033706106 -0.041810565 0.008429765 0.054993007 0.08505479 0.031207403 0.010569112
-0.050340272 0.039264034 0.05599557 -0.080511935 0.045520592 0.08582365 0.067588136 0.09614318
0.083271064 -0.04951961 -0.050109323 -0.018920204 0.02867215 -0.011599694 0.10003915 0.083868586
0.081939645 0.016527293 0.050216652 1.2444573e-05 0.06163518 0.085685395 0.047080476 0.011551082
-0.03330101 0.07812299 -0.0560654 0.023268383 0.038595833 0.047614496 -0.07306447 -0.052702267
0.016046109 -0.03841468 0.056517918 0.08953934 0.055427738 0.090064816 -0.029668182 0.04160275
-0.045847055 0.029439732 0.033120997 -0.011611407 0.037810534 -0.06888874 -0.0062531764 0.002406228
-0.016014112 -0.04913729 0.078007214 0.03293369 -0.060273226 0.043377563 0.014930529 0.09031059
0.08345936 -0.047580626 0.00091766584 -0.04623423 -0.041889165 -0.05829652 0.08245097 -0.033880915
0.02445273 0.07957289 -0.0056222407 0.040828746 0.040392388 -0.03598139 0.09062203 -0.010964828
-0.017002854 0.075458 0.0055043707 0.00041932825 0.010365898 0.07268903 0.08069318 -0.05021794
0.09087867 0.012186007 0.021821024 -0.033975948 0.07005777 0.016177623 -0.046072688 0.023819542
0.021905024 0.07274208 -0.024272107 0.105962984 -0.047486242 -0.014083363 0.10005134 -0.04384576
-0.01901074 0.08244676 -0.027302222 -0.06053993 0.090988904 0.09447027 0.07676684 -0.02432347
0.06793966 -0.036584575 -0.043343373 0.09813883 0.09554699 0.010470355 0.008608475 -0.03153519
0.05376717 -0.0030882456 0.09340259 0.06599396 -0.011908153 0.11109211 0.030731035 0.08888241
-0.005827142 0.07997304 0.0739896 0.020978436 0.017457042 0.0017628444 -0.032635644 0.08596388
0.07791464 0.088163465 0.013594016 -0.039443288 -0.04988674 0.11076881 -0.019095028 -0.030128565
0.050654124 -0.015804838 -0.064723305 -0.04885088 0.006895973 0.05935341 0.051276915 0.10086854
0.04897039 0.060493942 -0.026289953 0.025594184 0.008094544 0.023366954 0.08415868 0.08391661
0.12258681 0.047979802 -0.006273401 -0.05418031 0.007746962 0.0676816 -0.01880818 0.036701277
0.07142101 -0.027451556 0.11045739 0.071150154 0.08352121 -0.0059686354 0.05106368 0.121115215
0.031848725 0.00035020223 -0.026940089 0.029928358 0.07127596 -0.06940681 0.09063273 0.05475812
0.08688122 -0.03486821 0.0064802505 -0.05199424 -0.05740017 -0.06052034 0.06633608 -0.022697987
-0.008625154 -0.030049508 0.10197896 0.05095795 0.083766945 0.087907515 5.015308e-05 -0.04616662
0.025853457 0.09197966 -0.062652156 0.032318935 0.07466488 0.09890723 -0.06136439 0.012714166

lstm.bias_hh_l0 f4 [512]
00000000: 97a5 873d 6559 d13b f54b bebb c824 be3d
00000010: f953 37bc 735f eabc 27fe 11bd 4cce b23d
00000020: fb9e af3d 0b7a e6bc 9953 14bb 6ee2 143d
00000030: d0a2 df3d 37db 18bc 0ebe 093d 0bb1 ad3d
00000040: 2d7a b23d f241 ccbc 58c2 683d 5544 9e3d
00000050: 8e16 af3d 5e62 b63d 32fb 87bb 016a d73b
00000060: 1c32 74bd 9fe5 3e3d 5370 b1bb 736a cf3c
00000070: 7efc bf3c e26b 163c e550 733d 7e03 983d
00000080: b072 f33d 9902 423d 6afd bf3c 82ce 2d3d
00000090: f4ce ad3c 021a ed3d 4d90 50bd 928c 853c
000000a0: 56dd 4c3d 0eb9 20bd c9a4 05bc 1f2f 043d
000000b0: 82cb f1bc 3351 8e3d 8bd9 19bd 83c3 60bc
000000c0: 133b 40bd c936 ed3d 200b 00bc c2a2 503d
000000d0: ff32 cf3d a601 7f3d c4c5 4a3d 9cbd bb3c
000000e0: ca05 3f3d 005f c23d 10e4 763d 793e 8d3d
000000f0: b944 2abd e1ff e63c 69cc 49bd e36d 003d
00000100: 69ba 1c3c 5b2e 56bd 398a a53b 2510 7cbd
00000110: bfa5 aaba 1ac0 703b c2ed 463d b4f5 0f3d
00000120: 0df0 0dbd a761 ab3d 8242 8f3d 977b 613d
00000130: 9d64 e13d dbe8 90bc 22df 963d 6993 2bbb
00000140: 1c6e ea3c ecd5 a33d ee49 793d da10 24bd
00000150: 386f c43d 1d99 ec3d 6c7d 653d 05cb debc
00000160: 1323 163d 08e6 cdbc 7a15 9e3d 005a 313d
00000170: b247 2fbd 1d44 85bc 7910 893d 0d18 3d3d
00000180: f480 c13c fb75 063d 8c55 c53d cbbf 1ebd
00000190: 6446 0a3d 2e3f 0e3b add4 ac3d ce8a 0e3d
000001a0: a752 44bd 6107 9cbc ca0b bf3d 96ec 9cba
000001b0: 0b0e 7cbc ee99 8b3d 712e a73c d08d ce3d
000001c0: 075d 62bd c9e9 35bd 13e4 47bc cf2b 4d3c
000001d0: 200e 28b9 2884 9fbc a67e 9c3d 9615 5cbd
000001e0: ba10 09bd 6ab2 c83d 1b65 2e3c 1db8 33bc
000001f0: 4898 ae3c b6f7 4c3b d843 e0bb faf3 2e3d
00000200: 9ea9 9f3d 8a04 a03d c88e 69bd f581 ce3d
00000210: cb11 a43d cf9f 18bc 7d49 4a3c 345c 68bc
00000220: 5ffc 8c3d ef53 963c f5ee 70bd 40c2 93bb
00000230: b44a 0dbd 2e38 bc3d 508a a43d 746c d13d
00000240: 8f19 a13d 9786 5fbc f4d6 3bbd 102e ae3d
00000250: 9713 533d 8393 72bd 726d ed3d bf1e ff3c
00000260: a0db 34bd ed7a ce3c 4d2c 633d e61b a33d
00000270: b4ab c83d 7bbc 16bd 77cc cb3d cc88 003d
00000280: 235f ec3d 32a3 3c3c 9ccd d63c 6552 be3d
00000290: 6855 113d 737e 8d3d c8c4 553d eed7 cf3c
000002a0: 8d9f df3d be60 2a3d 848d 9dbb c9ca 56bd
000002b0: 0f84 db3c 420c 243d ef13 8e3d 7a88 65bd
000002c0: fc14 123d 38be f03b 5927 20bd d0af 1fbd
000002d0: d9c8 ef3c 9bc1 943d 6ab6 383d 17c1 a43d
000002e0: 82fb c13d c935 023e 4b98 403d e2b0 87bc
000002f0: 535c be3d 4769 3b3d 00e8 8b3d dc09 c03d
00000300: d3e7 6d3c 451c 463d 59b9 c43d 1b3d dc3d
00000310: 0bc6 a93d d914 053d 697f 983c b6db 5cbd
00000320: be35 2f3d b374 6139 911d a93d 75cf 363c
00000330: 9bf7 a93d a0dd 983d 353f 80bd e51d 40bd
00000340: c194 e43d e346 e53d b65e 123d 47b1 b03d
00000350: dc0b 0e3d 8bbd d93d 3cc5 24bd c82a 1d3d
00000360: 88d0 ccb9 8c32 813d b8c4 c33d 9b75 37bd
00000370: c755 9bbd 78ff 90bd 6035 bf3d 577d 88bc
00000380: edff cb3d 5610 a8bc 71bb 03bd 560e 813d
00000390: 6299 413d 3735 b33d 88b4 c93a 3813 d03c
000003a0: 02e9 2bbd 72cc 343d 7215 f1bc e23f cbbc
000003b0: caaf a23d bb88 3f3c 3805 b93d bce2 2eba
000003c0: 96f1 b93d c154 823d 3dac 943d f8bd 7dbb
000003d0: 52b3 a23d f5fd a43c 229b ef3c c7ce 3a3d
000003e0: 4a73 dd39 3dd1 28bd d80f 53bd 7555 cfbc
000003f0: d6c2 c03d 7ae9 89ba 8fa3 4b3d 80d9 5cbc
0.06623381 0.0063888305 -0.0058073946 0.09284359 -0.011189454 -0.028609967 -0.03564277 0.08730754
0.08575245 -0.028134366 -0.0022632836 0.036348753 0.10919726 -0.009329609 0.033628516 0.08481034
0.087147094 -0.024933789 0.056825966 0.07727877 0.08549224 0.08905481 -0.004149818 0.006573916
-0.0596181 0.046605702 -0.0054150014 0.025319314 0.023435827 0.009180995 0.05940332 0.07422541
0.11887109 0.04736576 0.023436267 0.04243327 0.021216847 0.11577226 -0.050918866 0.01630238
0.05001577 -0.039238982 -0.008156964 0.0322715 -0.029515985 0.06949081 -0.03756098 -0.013718489
-0.046931338 0.11582715 -0.007815152 0.050936468 0.101171486 0.06225743 0.04950501 0.022917561
0.04663638 0.09490776 0.06027609 0.06896681 -0.041569445 0.028198184 -0.049267206 0.031354796
0.009565928 -0.0522903 0.005051878 -0.061538834 -0.0013019367 0.0036735595 0.048566587 0.03514643
-0.03465276 0.08368235 0.06995107 0.055049505 0.110055186 -0.01768916 0.07366778 -0.0026180393
0.028616957 0.07999787 0.06086152 -0.040055133 0.09591526 0.115526415 0.056027815 -0.027196417
0.036654543 -0.025134102 0.0771894 0.04329872 -0.042792983 -0.01626783 0.06692595 0.046165515
0.02362106 0.03282736 0.096354574 -0.038757127 0.033758536 0.0021705138 0.08439002 0.034800343
-0.047930386 -0.019046487 0.093284205 -0.0011972364 -0.0153842075 0.06816469 0.020407887 0.10085642
-0.0552645 -0.044412408 -0.012200373 0.012522652 -0.0001602699 -0.019472197 0.07641344 -0.053731523
-0.033463217 0.09799655 0.010644223 -0.010969189 0.021312848 0.0031275577 -0.006844025 0.042713143
0.07796024 0.07813366 -0.057020932 0.10083381 0.08011206 -0.009315445 0.0123466225 -0.014182139
0.068840735 0.01835057 -0.058821637 -0.0045092404 -0.03449507 0.09190403 0.080341935 0.10225764
0.07866203 -0.013642929 -0.045859292 0.085048795 0.051532354 -0.05922271 0.11593141 0.03114259
-0.044154763 0.0252051 0.05546217 0.079643056 0.09798375 -0.036800843 0.09951108 0.03138046
0.115415834 0.011513518 0.026221089 0.09293059 0.03548184 0.06908884 0.05218962 0.025371518
0.10919104 0.041596167 -0.0048081297 -0.052439485 0.026796369 0.040050752 0.06937396 -0.056038357
0.035664544 0.0073468946 -0.039100025 -0.038986027 0.029270576 0.0726349 0.04509584 0.080446415
0.094717994 0.1271583 0.047020238 -0.016563836 0.09294953 0.045754697 0.0683136 0.093768805
0.014520603 0.048366804 0.09605665 0.107538424 0.08289727 0.032490585 0.018615441 -0.05392047
0.042775862 0.00021501146 0.082575925 0.01115786 0.0829918 0.074641466 -0.06262056 -0.04690351
0.11161185 0.11195161 0.035734855 0.08627563 0.03467928 0.106318556 -0.04022716 0.038370878
-0.0003906528 0.06308469 0.095590055 -0.04478989 -0.0758472 -0.07079977 0.09336352 -0.01666133
0.09960923 -0.020515602 -0.03216118 0.063015625 0.047265418 0.08750384 0.0015388886 0.02539979
-0.04197026 0.044140287 -0.029429171 -0.024810735 0.07943685 0.011690314 0.090341985 -0.00066713593
0.09079282 0.06363822 0.07259414 -0.0038717967 0.07944359 0.020140627 0.029248778 0.045607354
0.00042238302 -0.04121517 -0.05152878 -0.025309304 0.09412162 -0.0010521852 0.04971653 -0.01347959

lstm.weight_ih_l1 f4 [512, 128]
00000000: bc62 9b3d c436 4abd 5605 a43d aa7b 343d
00000010: a9af 10bd 55f9 cbbb a5d4 e43d 6a7f 5abd
00000020: 1acc 5e3d df8b 0cbd 472b ce3d 52af b1bd
00000030: 0ca9 d93b e673 083d 1996 613d 6dcd 1fbc
00000040: bd72 53bd 7b4d 7b3d 0ac2 e13d e651 e53b
00000050: 53b8 043d ee15 8f3d 6b96 383d ca99 90bd
00000060: ffc3 1bbd 556a 2e3d cc14 69bd 9d99 5cbc
00000070: 62b8 a2bc 95e9 503d 73b1 083d 110c 943b
00000080: ccd4 b83d 5129 f23c d227 70bd 3962 4ebd
00000090: 9221 a03c 5384 b0bd b518 973c 8d6c 373d
000000a0: c68c edbd 7b5f e93b 5ce4 803d 43b3 693d
000000b0: 75b6 133d 6927 463d ac68 383d 77e0 af3d
000000c0: a058 24bc 5e47 ee3d 1452 35bd 9caf 2dbb
000000d0: fe9c 2d3d 0d70 59bd 98b8 f63d 07b5 1fbd
000000e0: 0a72 74bd ce08 a43c fc27 6cbd 5f12 0f3a
000000f0: db6d e536 4768 11bc f7ba da3c 9c98 d73c
00000100: 2f92 23bd 4e11 87bd d531 23bd e157 863d
00000110: 7c33 6c3d 4235 7d3d 8439 f73c 6072 ef3c
00000120: 6c65 5a3d 6b5e 633d 2239 b13b ea02 6d3d
00000130: a087 27bb f2d2 adbc bd7b 683c 1d0b a63d
00000140: 1521 ed3b 5cc4 1abd 340b 8a3b 64cb e33d
00000150: 4fc0 133c a349 2abd 4a34 60bd 7455 1dbc
00000160: eb06 033c 7273 d4bc ca40 b93d d183 693d
00000170: 5d6d e7bd 8837 5b3d a439 c6bd c9c4 c03d
00000180: 14cc cfbc d821 14bd 6abf b73b c1ef 80bb
00000190: fd7b c1bc 27dd fc3c faf9 203d 8c82 72bd
000001a0: 48fb 2b3d 6d3e 953d 4dee 443d a74c 2ebd
000001b0: d5a5 913d 9208 823d b399 acbd 020b 143d
000001c0: b3ea 3cbc c7e7 a33d 8069 63bd daa8 86bc
000001d0: f49e 8b3c b0ee 823d 8973 b63d 6f6d 343c
000001e0: 518a 35bd fa8d 18bc efd5 92bc f3ba f1bc
000001f0: 9f6b 71bc 0789 df3d 2cb9 bd3d 4a2a 643d
00000200: 43fe 42bc 9c59 803d 1494 943c 4e70 bdbb
00000210: 33d4 f93c e404 5b3a 29f7 70bd a23e 013d
00000220: ff43 663d 6f69 37bc cbe4 83bd af80 5fbc
00000230: 7903 e2bd 95a3 ab3d 3053 5abd 0b99 d1b9
00000240: 00ce a43d 46b6 65bb 6a9b 3f3d 2db4 9f3d
00000250: a7d1 7c3d a979 d23d e1d2 87bd 477e b73d
00000260: 7335 9b3d 45f3 74bd 561d 1ebd de68 903d
00000270: b787 bb3d 7e51 693d 52ab 973d 3f9e 70bd
00000280: d56e a43c cdd7 1b3d bebb 4f3c 9ffe d3bc
00000290: e099 92bd 86fb d03d b4a3 29bd f31c 7f3d
000002a0: 7a29 083d c670 f1bc 05a2 1dbd 880f 3f3d
000002b0: 9459 c3bd 7a7b ae3d 71a8 4f3d 7eb0 b3bb
000002c0: 3318 593d 0e9d b0bd 64e3 41bd a88c 733d
000002d0: fb4d cc3d e057 87bd b095 4f3d 2ba6 663b
000002e0: b020 4abd 600e 17bd 68c4 88bc d893 2fbd
000002f0: 50ef 36bc 7080 77bc e0c2 86bd f2c0 ce3c
00000300: 367d abbc ed05 863c f412 5bbd 9678 5cbd
00000310: 31b1 8d3d fb52 c13d 31d3 fa3c 55ed a63d
00000320: 8658 323d b9b7 d1bb 60d3 d93d b056 b63c
00000330: f043 c0bd 9133 6d3d 034b 233d d05a 393c
00000340: bb7d 0f3d 5d99 cdbd 0d46 a9bc 25e6 7e3d
00000350: efab 9c3d 1818 513b da30 a0bc 5413 da3d
00000360: 8315 103d a5c4 163d b4bd aabc 4119 3f3b
00000370: d8fc 643d 3009 08bd 020c ebbd e9c2 52b9
00000380: 45c5 77bd fc06 f73c fcef 973d e237 133d
00000390: b759 9ebd 574a 36bc 9e0c 96bd 6d8d 13bd
000003a0: 5331 84bd 71ae db3d db82 76bd 2535 933d
000003b0: 3e6a 52bd f074 f8bc ac91 d7bd 0149 1bbd
000003c0: a721 813d 7d49 7fbd 1233 5bbd 1b9a a7bd
000003d0: 5aa7 86bc 0298 81bc 397a 8dbb cf60 453d
000003e0: 72a8 6ebd e07a 5abd 8f1b 913d 43a2 d4bd
000003f0: ad72 77bb bb5f 713d 9aa2 963d f401 9cbd
0.075871915 -0.049368635 0.0800883 0.044063248 -0.035323773 -0.006224791 0.11173371 -0.053344168
0.054393865 -0.03431308 0.10066848 -0.08676018 0.0066424664 0.033313654 0.055074785 -0.009753567
-0.051623095 0.061353188 0.11023338 0.0069982884 0.032402348 0.06986605 0.045065325 -0.07060583
-0.038028713 0.042581875 -0.0569046 -0.013464359 -0.019863311 0.05100401 0.033372354 0.00451804
0.09024963 0.029560717 -0.058631726 -0.05038664 0.019547258 -0.08618989 0.018444398 0.044781256
-0.11599116 0.007121978 0.06293556 0.057055723 0.036062676 0.04837743 0.045021698 0.08587735
-0.0100308955 0.11634706 -0.04426773 -0.0026502376 0.042386048 -0.053085376 0.12046927 -0.038991
-0.05967907 0.02002373 -0.05765532 0.00054577546 6.8375207e-06 -0.008874959 0.02670048 0.026317887
-0.039934333 -0.065950975 -0.039842445 0.0655973 0.057666287 0.06181837 0.030178793 0.029229343
0.05331938 0.055509966 0.005408422 0.057864107 -0.0025563017 -0.02121875 0.014189658 0.081075884
0.0072366097 -0.03778492 0.0042127613 0.11122778 0.009018018 -0.04157413 -0.054737367 -0.009602893
0.007997255 -0.025933955 0.09045561 0.057010476 -0.11300156 0.053519756 -0.09678963 0.09412534
-0.025365867 -0.03616509 0.005607535 -0.003934831 -0.023618693 0.030867172 0.039300896 -0.05920653
0.041987687 0.072872974 0.048078824 -0.04255357 0.07111708 0.06349291 -0.08427753 0.03614331
-0.011530566 0.080031924 -0.055520535 -0.016437937 0.017043568 0.06393182 0.08908755 0.011012419
-0.044321362 -0.009311194 -0.017924277 -0.02950809 -0.0147351315 0.10914808 0.09263834 0.055704392
-0.011901441 0.06267092 0.018137015 -0.00578121 0.030496692 0.0008354916 -0.05882946 0.031553872
0.05621719 -0.011194571 -0.06440123 -0.01364152 -0.110358186 0.0838081 -0.05330199 -0.00039977612
0.08047104 -0.003505127 0.046779074 0.07798038 0.061723378 0.10277111 -0.06632019 0.08959632
0.07578554 -0.059802312 -0.038602196 0.07051252 0.09156745 0.056962483 0.07405724 -0.058744665
0.02007238 0.0380476 0.012679039 -0.025878249 -0.071582556 0.10204224 -0.041415885 0.062283468
0.03324268 -0.02947272 -0.038484592 0.04664567 -0.0953857 0.08519645 0.050697748 -0.005483686
0.053001594 -0.08623706 -0.047335997 0.059460312 0.09975811 -0.06608558 0.050679862 0.0035194259
-0.04934758 -0.036878943 -0.016695216 -0.042865604 -0.011165455 -0.0151063055 -0.06580138 0.025238488
-0.020933729 0.016360248 -0.053484872 -0.053825937 0.06918562 0.094396554 0.030618282 0.08150736
0.043541454 -0.0064000753 0.1063602 0.022258133 -0.09387958 0.057910506 0.03986646 0.011313155
0.035032015 -0.10039017 -0.020663286 0.0622312 0.07649981 0.003190523 -0.019554544 0.10648218
0.035176765 0.03680863 -0.02084241 0.002915934 0.055905193 -0.033211887 -0.114769 -0.0002009977
-0.060490865 0.030154698 0.0741882 0.035941966 -0.077319555 -0.011126122 -0.07326625 -0.036023546
-0.0645472 0.107266314 -0.060183387 0.07187871 -0.05137085 -0.030329198 -0.105258316 -0.03791142
0.06305247 -0.062325943 -0.0535155 -0.0818369 -0.016437221 -0.015819553 -0.0043175486 0.048188027
-0.05826611 -0.05333984 0.070853345 -0.103825115 -0.003775756 0.058929186 0.073552325 -0.0761756

lstm.weight_hh_l1 f4 [512, 128]
00000000: 3d06 c63c 89cd b23d 0305 b93d ef96 07bc
00000010: 6806 ddbb d0a4 99bd 2f5e 353b 74c5 19bd
00000020: 3f79 23bd e167 92bc b64a 36bd 1c1e db3c
00000030: 5ada f83c b0c3 f23c 0fae 5b3d 14b1 483c
00000040: 3c15 bb3c 9659 dbbd e646 ca3c ce04 f2bd
00000050: 6525 193d ae05 37bd 6e78 293d 6526 afbd
00000060: df25 ee3c 26fd dabd bad4 5fbc c79f a83b
00000070: 376e c1bc c174 a4bc 423e 953c b5dd 45bd
00000080: 712a aebd a594 023d 29c4 4dbd 3877 20bd
00000090: 8402 103c d924 ccbc 1416 813d 22ff 303d
000000a0: 6d06 5fbd 321f 553d f459 01bc c714 ebbc
000000b0: 9147 94bd 57ba aabd 4f39 5d3d 7d9f 4f3d
000000c0: 9dd1 253d b7d6 2cbd c134 38bc d246 c03c
000000d0: fffc 4f3d 2467 db3b 8643 5ebd a601 16bc
000000e0: a293 c93d 904c b8bc b538 5dbd f7ea 81bd
000000f0: 7588 3e3d af8b d3bd ca70 293d 6bf6 4c3c
00000100: fff1 913c 8d47 adbd f143 3f3d 6af7 073c
00000110: fae4 0ebd ba49 c53c 7ef5 1dbd 43ae c3bc
00000120: 19d0 2ebd 6b18 123d c286 5e3d 159e d8bd
00000130: 2b6c 3bbd aacc 083d 32d8 0fbd 4b2d 35bd
00000140: 30ad 07bd c8c8 64bc ddce 17bd 36d0 9cbd
00000150: 8cb4 d93d bb44 55bd 2567 b4bd 3b63 9b3c
00000160: d83f 9a3d 6e96 c0bd 3c30 e4bd 46b4 ab3d
00000170: 8f98 c4bc eb1a 443d df74 0cbc d6e5 c03d
00000180: 0373 363d 85ff 1fbd a0b0 c63d 50c8 f73b
00000190: 9c2f 32bc dd81 ccbc b875 a5bc 63ca 67bc
000001a0: 3da4 d0bd b77f a5bc d274 e5bc e6f2 59bd
000001b0: 3b5a e5bd 5a97 82bd ba26 823d 3a28 913d
000001c0: c36a 813d e7f5 1cbd d711 683d 0ad4 56bd
000001d0: 15a9 5f3d e562 923c bf2e 473d ecc1 bf3d
000001e0: 7617 6f3d df6b 34bd d2b3 3b3d f17a 3dba
000001f0: bf46 56bc 43e3 8a3d dd49 58bd fae6 2dbc
00000200: d04c 28bd 5661 fabc 3696 963d f735 813c
00000210: 4392 bf3d 9d89 4cbc 3016 20bc 3567 80bd
00000220: 8fe3 173d c9f5 113d c02d 7f3d 5eba 42bc
00000230: 7f16 23bd 6738 5fbd e2b6 823d 54e0 d83c
00000240: 6c3d 9a3d 7658 533d 2589 86bd 11a2 f2bd
00000250: 3815 b73c 0a54 683d 14e4 513d 0cd3 b6bd
00000260: eac0 d43c 63c0 dcbb c322 45bc 384a b83b
00000270: 62b8 96bd e612 df3a 737e cc3c 88e9 32bd
00000280: 006c 803d cf89 653c 539d 533d 247f 533d
00000290: 6ae9 10bd 0520 a83a 967f 0c3d af85 c9bc
000002a0: 2a9e ccbc 2650 d8bc d2da be3d f149 9b3d
000002b0: 4b90 8cbd af15 98bc 7401 2e3d 05ff cd3b
000002c0: 33fd d6bd 30da 623d 8385 f9bc eca2 103d
000002d0: 00b3 4d3d 3eb9 9abc 20b3 8d3b bf73 58bd
000002e0: 0681 5dbd 6bf6 973b 4cd4 4d3d c05e 55bc
000002f0: 3fa8 923c 3583 8f3a 47b4 e73b 4472 603d
00000300: e244 49bc cc62 ee3b ce5b 85bc e2c9 963a
00000310: 560b 533d e5cf b43b 52ff c63d e161 b7bd
00000320: ef66 b2bd fb40 ddbc 0f34 70bd 48a2 5cbd
00000330: 13fa a23c 7a69 943d aef8 7ebd 9131 7e3d
00000340: 37e7 c03a 5333 82bd d93f 8c3d e29a 9a3d
00000350: fca5 833d 22dc ad3c 9a11 473c 2dd8 8bbb
00000360: be5f a73c 9df6 ca3c f97a 79bd 3674 14bd
00000370: 647d e73c c5df 1b3d 9e18 6e3d 600a 2e3d
00000380: db9b d5bc 4b4b 32bd 4485 18bd 642a 4f3d
00000390: dffa 933d 3f4a c4bd 8745 0fbc a736 5abd
000003a0: b396 5e3d c8f8 dfbc 1c44 a4bd 31f9 6d3c
000003b0: 174f b23c 2011 3ebc 4192 18bd 8dca 4abd
000003c0: 0caf ab3d d6bb 47bd 29d6 583d feea 663d
000003d0: d279 c83d c847 a13d b165 f53c f1fa 9f3d
000003e0: f447 2cbd 61f1 66bb 6862 ba3c d5aa 81bc
000003f0: c5b3 8bbc d98d 023d 3ac5 243d 8ebf 8f3a
0.024172897 0.08730609 0.09034159 -0.0082757315 -0.0067451485 -0.075021386 0.0027674546 -0.03754182
-0.03991055 -0.017871799 -0.044504844 0.026747756 0.030377556 0.029634327 0.053632792 0.01224925
0.022837274 -0.107104465 0.02469201 -0.11817323 0.037389178 -0.04468315 0.041374616 -0.08552245
0.029070793 -0.106928155 -0.013661558 0.005146 -0.023612125 -0.020075204 0.018218163 -0.04830714
-0.08504189 0.03188004 -0.0502359 -0.039176196 0.008789662 -0.024919914 0.06303039 0.043212064
-0.054449487 0.052031703 -0.007894982 -0.02869643 -0.07240213 -0.08336323 0.05400973 0.05068921
0.040483106 -0.042196956 -0.011243046 0.02347127 0.050778385 0.006695645 -0.054263614 -0.009155666
0.09842612 -0.022497445 -0.05400916 -0.06343644 0.046516854 -0.10329377 0.04136733 0.0125099225
0.017815588 -0.08460913 0.046695653 0.008298734 -0.034886338 0.024083007 -0.038564198 -0.023886805
-0.042678926 0.035667818 0.054327734 -0.10577027 -0.045757454 0.033398308 -0.03511829 -0.044232648
-0.03312415 -0.013963886 -0.037062515 -0.076569006 0.1063014 -0.0520675 -0.08808736 0.018968215
0.075317085 -0.09403692 -0.111420125 0.08383994 -0.023998527 0.047877233 -0.008572786 0.09418838
0.044543277 -0.03906204 0.09701657 0.007561721 -0.010875609 -0.024964267 -0.020197734 -0.014147374
-0.10187576 -0.0202025 -0.028009806 -0.05321016 -0.11198851 -0.06376524 0.06355043 0.07087751
0.06319191 -0.03832045 0.05665764 -0.05244831 0.05460461 0.017869422 0.048628565 0.093631595
0.058371983 -0.044048186 0.045825787 -0.00072280975 -0.013078391 0.06781628 -0.052804817 -0.010614151
-0.04108888 -0.030563992 0.07352869 0.015772803 0.09354069 -0.012483981 -0.009770915 -0.06269685
0.03708225 0.03563479 0.06229949 -0.011885254 -0.039816376 -0.05449715 0.063825384 0.026474155
0.075312465 0.051598035 -0.06569127 -0.11847318 0.022348985 0.05672077 0.051242903 -0.08926973
0.025970895 -0.0067368015 -0.012032214 0.005624082 -0.07359387 0.0017019182 0.02496264 -0.043679744
0.06270599 0.014009907 0.051663708 0.051634923 -0.03537885 0.0012826925 0.034301363 -0.024599878
-0.024977762 -0.026405405 0.093190804 0.075824626 -0.06863459 -0.018565027 0.042481855 0.006286504
-0.10497513 0.05538386 -0.030459171 0.035311624 0.050219536 -0.018887158 0.004324332 -0.05284476
-0.054078124 0.0046375296 0.05025129 -0.013023078 0.017902492 0.0010949137 0.0070710513 0.054796472
-0.012284489 0.007274961 -0.016279127 0.0011504258 0.051524483 0.005517947 0.09716667 -0.08954216
-0.08711039 -0.027008524 -0.058643397 -0.0538657 0.019894635 0.072466806 -0.06224888 0.06205899
0.0014717345 -0.063574456 0.068481155 0.07549073 0.064281434 0.021223132 0.012150193 -0.0042677135
0.020431396 0.024775798 -0.06090829 -0.03624364 0.028258033 0.0380552 0.058128946 0.042490363
-0.026075294 -0.043528836 -0.037236467 0.050577536 0.07225584 -0.09584474 -0.008744604 -0.053274777
0.054342937 -0.027340308 -0.08020803 0.014524744 0.021766229 -0.011600763 -0.037248854 -0.049509574
0.08382997 -0.04876312 0.052938614 0.05637645 0.097888604 0.07875019 0.029955717 0.07811535
-0.042060807 -0.0035239088 0.022752002 -0.01582853 -0.017053494 0.031873558 0.040227152 0.0010967122

lstm.bias_ih_l1 f4 [512]
00000000: 71f2 a53d 4a63 713d 0ff7 333d 6733 b93c
00000010: 9cf3 fdbc 0772 393d b99f a63c 876f 603c
00000020: 1d80 5d3c 98f1 0d3d af3f 9bbc 2e47 86bc
00000030: f5ea 47bd 7aac 7cbd bca3 28bc 4f4e 7b3d
00000040: be11 4bbd 805e df3d 136e dc3d 1146 9abd
00000050: 54d7 213d 417f 0e3d fff2 903d 5e08 013d
00000060: 44c9 3fbd 9455 aebc e659 b13c ddf4 d13c
00000070: b173 acbc 42b4 46bd f3ef 30bd 75a7 3a3d
00000080: 55a2 72bd 79d0 53bc 7518 4d3d fe8d b0bb
00000090: cf66 a93c c13a 6fbc 0c3b 2c3d 53bb c63d
000000a0: 3a13 393d ec9b 2a3c 5f18 723c 8822 f8bb
000000b0: 6fc4 823d d9f7 903c eede f1bb 990d 34bd
000000c0: f7cd 7fbd 6623 ac3d dd3c aebb 7339 55bd
000000d0: 01af ef3d 23fb 463d efa7 c73d 512f 0f3d
000000e0: ebe2 403d 94c7 db3d a5a6 8a3d b8a9 d7bc
000000f0: b434 583d 6390 383c 0a59 52bc 0283 e3bc
00000100: d380 d43d e1c5 e83d 8507 993d 4315 e43c
00000110: 03f2 403d 2e11 a13d 3818 84bc 9fcc 90bc
00000120: bff5 ab3c 03b0 a1bc 1643 cd3d 7cb9 01bd
00000130: c665 a3bc d31c 5e3d 3e96 e03d 8c43 2b3d
00000140: 07d4 f6bc b272 b23c 9e41 02bd ddbe 6b3d
00000150: 67bf 28bb bf2e 51bc ec27 383d 1c4a f03c
00000160: 3a31 97bc d72d e1bc b4d0 c93d 53f3 a43d
00000170: 02de 363c b213 2cbd bbb3 5d3b f599 4d3a
00000180: e051 d93d d591 913d de65 ed3b 7e62 2cbd
00000190: 29c4 8dbd 0496 7c3d 4b79 2e3b 82f9 8bbc
000001a0: 218a 3c3d 68a3 6a3d fc24 7abc 9646 11bb
000001b0: 4bef 313c bfc7 7fbd 184e b03c 0fb0 1cbd
000001c0: aa78 9b3d fac7 57bc a17f 6b3d f69f d33c
000001d0: 68fb a43d 0ca5 8f3d 5524 e9bb 206c 11bd
000001e0: e3e7 793c 3b67 86bc 4099 323d dd1e f2bc
000001f0: 115f b3bc 3103 89bd 8ee7 31bd a173 8d3d
00000200: 5c94 193d 367b d13d d56e 363c 6a32 62bd
00000210: f695 a03d c171 b1bb 7202 333d 76c0 e9bc
00000220: 9577 adbb 8b05 253c ca13 943d 979a 5a3c
00000230: c7b3 8a3d c37c 01bd 1c8e 933d f128 803d
00000240: 3418 8cbd 3ccb 72bd 1c7e 953d ef83 a63d
00000250: 8a55 c33d 4c67 a23d 04a4 1fbd 66a5 8f3b
00000260: c0c2 323d 3c2a 3abd 1354 b93c 61ac 223d
00000270: d171 47bd 3fd0 f03b 53bc bd3d bf16 dfb9
00000280: f640 54bd f2b5 5cbb 671a 96bc 778a dd3d
00000290: 7f5d a63d 2af6 15bd 62a4 b13d 9d1d c53d
000002a0: b047 0b3c f0f9 e53c 99f2 913c 7aaf 563b
000002b0: a3a1 96bd 2edf 773d 009e 35bd 3dcd 3d3d
000002c0: 715c c73d 5bc7 0ebd 0754 bcba d18d 65bd
000002d0: 91c4 643d edd2 29bd 4c78 33bd ba12 293c
000002e0: 3d4b 57bd 48b7 cdbc d083 8f3d a8cc a53d
000002f0: 7c2d 863d 48c6 5a3d 03b9 8e3d 3007 2f3d
00000300: 07c5 8a3d dc68 083d 1756 68bd ce07 ce3d
00000310: e6df 91bc bcec 47bc ed8d 533c d069 ac3d
00000320: 4ae2 453b 9e40 2abc 932f 883d c7a4 ae3c
00000330: 1bdb 353c eb43 44bd f19f 983d df35 98bc
00000340: 4201 593d c18e 013d 3b9d 40bd 2d87 6c3c
00000350: 0d10 593d 4a48 a43d b3d0 933d c989 80bc
00000360: 9bc7 42bc 17d9 dcbc d32b c13d 7c47 893b
00000370: 5201 19bd cd75 74bd f148 a73d fe8f 8a3d
00000380: a23f 88bc fb68 333d c0a1 d1bc f6ec 03bd
00000390: 48c4 b83d f02b 68bc 49ea d83d a481 683c
000003a0: 8a4d ac3d 60d1 963d 9eb7 953d 161e 0c3d
000003b0: 5d46 1bbd 0877 4f3d beb4 7f3d e631 aa3c
000003c0: ee31 973d 8cc5 42bd 78cf 5ebd 7410 b63b
000003d0: 054e 10bd 31d4 ad3d 6a90 933d 44dd a73b
000003e0: bc25 0b3c 8ea9 35bd ee8a 4ebd 3b3b a43c
000003f0: da2e 0cbc 8419 bc3d 1ce1 b33d ab3e bf3d
0.08102883 0.05893258 0.043936785 0.022607518 -0.030999951 0.04527476 0.020339834 0.013698465
0.013519314 0.03465423 -0.018951265 -0.016391363 -0.048808057 -0.061687924 -0.010292944 0.061353978
-0.049577467 0.10906696 0.107631825 -0.07532895 0.039511994 0.034789328 0.07077598 0.03150212
-0.0468228 -0.021281041 0.021649312 0.025629455 -0.02105126 -0.04851175 -0.043197583 0.045569856
-0.059236843 -0.012928122 0.050072152 -0.0053880205 0.020678906 -0.01460141 0.0420485 0.09703698
0.04518435 0.010413151 0.014776318 -0.007572476 0.06385123 0.017696308 -0.0073813116 -0.04395828
-0.062452283 0.08405189 -0.005317314 -0.05205674 0.11703301 0.048579346 0.09748828 0.034957234
0.047091406 0.10731426 0.06770066 -0.026326045 0.052784637 0.011264893 -0.012838611 -0.02777243
0.10376134 0.113658674 0.07472137 0.02784217 0.0471058 0.07864605 -0.01612483 -0.017675696
0.020991204 -0.01973725 0.10022561 -0.031671032 -0.01994599 0.054226708 0.109661564 0.041812465
-0.0301304 0.021783207 -0.03180086 0.05755507 -0.002574885 -0.012767493 0.044959947 0.029332213
-0.01845609 -0.027487678 0.0985426 0.08054223 0.011161329 -0.04201097 0.0033829052 0.0007843071
0.106113195 0.071078934 0.0072448095 -0.042086117 -0.0692218 0.061666504 0.002662259 -0.017086748
0.046030167 0.057284743 -0.015267607 -0.0022167317 0.010860275 -0.062446352 0.021521613 -0.03825384
0.07591374 -0.013170237 0.057494763 0.025833111 0.080557644 0.07013902 -0.007114927 -0.035503507
0.01525304 -0.016406646 0.04360318 -0.029555732 -0.021895917 -0.06690062 -0.04343372 0.0690682
0.037495002 0.10228579 0.011134823 -0.05522386 0.07841103 -0.005415172 0.043703504 -0.028534155
-0.0052937963 0.010072122 0.07230337 0.013342521 0.06772571 -0.031613123 0.072048396 0.06257809
-0.06840554 -0.05927585 0.07299444 0.08130633 0.095378 0.079298586 -0.038974777 0.0043837307
0.04364276 -0.045450434 0.022623098 0.039715175 -0.04869253 0.0073490436 0.092644356 -0.00042550822
-0.051819764 -0.0033677784 -0.018323136 0.10817426 0.08123302 -0.036611713 0.08673932 0.09624789
0.008500978 0.028073281 0.017815875 0.00327584 -0.073550485 0.060515575 -0.044340134 0.04633831
0.09734429 -0.03485809 -0.0014368304 -0.05604345 0.055851523 -0.04146092 -0.043815896 0.010319406
-0.052561987 -0.02511181 0.07007563 0.08095676 0.06551644 0.053411752 0.06968882 0.042731464
0.06775861 0.033303127 -0.056722727 0.100600824 -0.017806958 -0.012202438 0.012912256 0.0841862
0.0030194693 -0.0103913825 0.06649699 0.021318806 0.011099602 -0.047916334 0.074523814 -0.018580375
0.052979715 0.03163028 -0.047024947 0.014436525 0.052993823 0.080216005 0.072175406 -0.015690701
-0.01188841 -0.026958985 0.09432187 0.00418943 -0.037354775 -0.059682656 0.08168209 0.067657456
-0.016631905 0.04380129 -0.025589824 -0.032208405 0.09021813 -0.014170632 0.10591561 0.014191065
0.08413227 0.07364154 0.07310413 0.03420838 -0.0379089 0.050650626 0.06242823 0.020775747
0.0738257 -0.047551677 -0.054397076 0.0055561606 -0.035230655 0.08487738 0.07205279 0.0051228125
0.008492883 -0.044351153 -0.050425462 0.020047775 -0.008556092 0.09184554 0.087831706 0.09338125
